code/inference/param/MNIST_multiclass_SLP.pth (torch, 32998 bytes, 2 tensors)

weight f4 [784, 10]
000000 6a 16 72 bf bd 54 51 3f 4f 36 3a bf 09 17 f7 3e
       -0.9456545 0.81769925 -0.7273912 0.48259762
000010 89 2e 3b 3f d3 a8 ca bf 46 e0 e2 3e 17 9b 35 bf
       0.7311788 -1.5832771 0.44311732 -0.70939773
000020 3e 88 ee bf 87 85 d9 bf 75 37 84 be 79 8f de be
       -1.8635328 -1.6993874 -0.2582356 -0.43468836
000030 d3 67 87 3e f2 bd 9a 3f 1e 72 35 3f 1d e8 75 3e
       0.264464 1.2089217 0.70877254 0.24014325
000040 61 66 01 3f 8c 9c db bc b0 3e 03 bf ac 92 ff 3e
       0.5054684 -0.026808046 -0.5126753 0.4991659
000050 ab 02 9d bf 5d 5a 24 bf 19 31 31 40 00 41 8b be
       -1.2266439 -0.64200383 2.7686217 -0.2719803
000060 1f 3d 0e 3f fe f3 90 bf 77 4c 29 3f d6 5a 79 3e
       0.55562013 -1.132446 0.661323 0.24351057
000070 0a 86 e0 bd c4 dc 15 3f 4f c4 a3 bf 87 f4 c1 3e
       -0.10963066 0.58539987 -1.2794284 0.37881872
000080 e3 b0 79 be e3 09 ec 3d 1b 6a a7 bf 20 0c e1 3e
       -0.24383883 0.11525323 -1.3079256 0.43954563
000090 32 cc 4f bf aa 66 dc 3d 2b b4 e3 be 3c 19 7e 3e
       -0.8117095 0.10761769 -0.44473395 0.24814314
0000a0 4a 3a 09 3f 7d 98 d5 be 70 c9 51 bf f9 40 6d 3f
       0.5360457 -0.41717902 -0.81947994 0.92677265
0000b0 e4 9d 59 be 74 05 89 3f 93 18 d4 bd ce 52 94 3f
       -0.21251637 1.0704789 -0.1035625 1.158777
0000c0 18 7e 1d bf 48 51 a2 3f 35 19 aa 3f a0 d3 9c 3f
       -0.6152053 1.2681055 1.3288943 1.2252083
0000d0 be 3b 6b 3f bc 32 bc bf bd 0c d1 be b9 8b a5 bf
       0.91888034 -1.4702983 -0.4083003 -1.2933265
0000e0 ef e8 90 3f a6 23 64 3f e4 cc d1 3d c2 42 a0 bd
       1.1321086 0.89116895 0.10244158 -0.07825233
0000f0 32 9c 31 40 da 61 97 3e c1 47 9f 3e 85 4e 44 3f
       2.7751584 0.29566842 0.3110943 0.7668231
000100 b0 fd a1 3f 7c ab 25 40 28 7c 0c 3f a9 e5 28 3e
       1.2655544 2.5885916 0.5487695 0.16493858
000110 34 4d 05 bd 69 c2 df bf 0e 71 9b 3f 8a 82 13 bf
       -0.03254433 -1.7481204 1.2143877 -0.5762106
000120 13 a3 f6 3e eb 81 1e be da 44 9d be ee cf 87 3f
       0.4817129 -0.15479247 -0.30716592 1.061033
000130 86 20 93 be c8 1e b4 3e f4 45 7e 3f f4 6f 9b bf
       -0.2873575 0.35179734 0.9932549 -1.214354
000140 19 12 e7 3b f7 cd d5 3e 3c cd 07 bf 66 9a 57 be
       0.007051718 0.417587 -0.5304754 -0.21054992
000150 f8 ac ff 3e 00 84 0a c0 03 fb 22 40 be 10 61 bf
       0.49936652 -2.1643066 2.5465705 -0.8791617
000160 45 f8 f7 bd 76 4a 9f bd 10 7e 67 3f 3a e7 19 bf
       -0.121079005 -0.07777874 0.9042673 -0.6011845
000170 44 43 2e bf 1a 69 cf 3e d6 e5 70 bd 0b 0f 0b 3f
       -0.6807139 0.40509874 -0.05881294 0.5431983
000180 3c ad 08 40 b5 99 2b 3f 3a 69 8c bf 77 53 df 3e
       2.1355734 0.67031413 -1.0969613 0.43618366
000190 d4 96 65 3e 65 40 4a bf 71 1b b5 be d0 94 83 be
       0.22420818 -0.7900451 -0.353725 -0.25699472
0001a0 be 56 24 40 65 a7 c0 3f 0f 89 ea 3e c9 67 d0 be
       2.5677943 1.5051085 0.45807692 -0.40704182
0001b0 4c 32 9d 3f ba 73 dc 3e b2 39 22 40 69 12 7d be
       1.2280974 0.43057042 2.5347714 -0.24714054
0001c0 e0 51 b5 3f f7 2c 0f 3e c6 f2 f1 be 54 3f b2 bd
       1.4165611 0.13981996 -0.47255534 -0.08703485
0001d0 cc bb 15 3d a3 02 88 bf 82 04 27 be 67 f6 61 3f
       0.03655605 -1.0625805 -0.16310313 0.88266605
0001e0 e3 1b a9 3f 1e 7a a7 bf 93 30 96 3f bc 68 7a bf
       1.3211635 -1.3084142 1.1733574 -0.9781606
0001f0 b8 aa 36 c0 24 da b0 3f ed d6 8a bf 16 6a 8d bf
       -2.8541698 1.3816571 -1.084684 -1.1048
000200 f7 ab 9f 3e a8 8f 04 bf df 49 d7 be 70 8d 01 40
       0.31185886 -0.517817 -0.42048547 2.0242577
000210 b9 a6 62 bf ff a0 65 bf 05 c1 44 bf e8 30 0a c0
       -0.8853565 -0.89698786 -0.76857024 -2.159235
000220 f0 92 c7 3f 5f 38 17 bf 1e 88 4e c0 8f 86 83 bf
       1.5591717 -0.5907039 -3.227058 -1.0275439
000230 6b b7 32 bf 3c d9 dd bf e1 f2 ad be 7c e4 a3 3e
       -0.69811124 -1.733192 -0.33974364 0.32010257
000240 1d 9f 17 c0 6e ee 44 be 94 8b 62 c0 31 ed c6 bf
       -2.3690865 -0.19231579 -3.5397692 -1.5541135
000250 17 63 91 bb 7d b3 56 3f bc 70 fd bf 03 b3 72 3e
       -0.0044368613 0.8386763 -1.9800029 0.237011
000260 a7 c3 32 bf 19 ae 6e 3f 52 37 e0 3e 4e e8 cf bf
       -0.6982979 0.932344 0.43792206 -1.6242769
000270 1e 32 f8 3e db dc 72 bd f8 c4 a0 be 76 90 ea 3e
       0.48475736 -0.059292655 -0.31400275 0.4581334
000280 dd e5 1a bf f5 5b 82 bf c1 6c 7d bf cb a4 71 bf
       -0.60506994 -1.0184313 -0.9899407 -0.9439208
000290 36 79 01 bf 18 3e 1c 3f 28 0e a9 3f 25 13 d3 3f
       -0.5057558 0.6103225 1.3207445 1.6490217
0002a0 87 21 37 3e d1 93 48 3f c9 e8 6e bf 28 ab af 3f
       0.17883883 0.7835055 -0.9332395 1.3724108
0002b0 5a 8c 84 3d 22 0b 93 bf 3f c8 e0 3e 50 e2 3c 3f
       0.064720824 -1.1487772 0.43902776 0.73782825
0002c0 fb f0 ab 3f f2 29 cd 3f 2d ac f9 3e 20 73 b7 bf
       1.3432916 1.6028426 0.48764172 -1.4332008
0002d0 2f 52 85 3e ab 21 f2 3d 20 46 d7 be 2f 95 ce 3f
       0.26039264 0.11822828 -0.4204569 1.6139277
0002e0 77 85 a1 3f 17 98 cd 3e a7 ee a1 bf ef 37 06 3f
       1.2618855 0.40155098 -1.2650956 0.524291
0002f0 bf 1c a5 3f 73 20 8e bf 11 32 2c 3f 01 82 14 c0
       1.2899398 -1.1103653 0.67263895 -2.3204348
000300 61 d7 ed bf a2 0a dd 3e f7 bd 84 bf d3 f9 9f bf
       -1.8581353 0.43172175 -1.0370473 -1.2498115
000310 bf b6 d7 3e 13 62 88 bf 35 cb 9e bf c9 ca f9 3f
       0.42131612 -1.065493 -1.2405764 1.951501
000320 9f 73 38 bf 9d ac 11 bf f7 36 1d bf 7a a5 a2 be
       -0.72051424 -0.5690401 -0.61411995 -0.31766874
000330 fd b1 22 3d 52 11 87 3f 28 b7 05 be fc 1b 50 3f
       0.039720524 1.0552161 -0.1305815 0.812927
000340 ca 5d d2 bd 20 19 1b bf 85 69 6c bf c2 f4 88 3f
       -0.10271795 -0.6058521 -0.9234851 1.0699694
000350 d6 90 d2 3f 3d 89 27 3f 97 16 d0 3f 20 89 16 40
       1.645045 0.65443784 1.6256894 2.3521194
000360 51 71 23 3f 48 98 48 c0 43 90 5a bf 5e 87 84 3f
       0.6384478 -3.1342945 -0.85376376 1.0353811
000370 b7 5b 4e bf 0d 52 25 3e ca c1 f9 3f c4 90 dd be
       -0.80608696 0.16144581 1.9512265 -0.4327451
000380 3c 11 16 c0 30 7f 83 3e 14 39 c6 3f 07 e8 78 bf
       -2.344802 0.25682974 1.5486169 -0.97229046
000390 20 7f 1b 3f a2 80 fb 3e 73 52 cf bd 69 e7 76 be
       0.6074085 0.49121577 -0.10123148 -0.24111713
0003a0 bc f6 f0 3e 92 c6 6d 3f 77 6b 8c 3f fc d3 a6 3e
       0.47063243 0.9288112 1.0970296 0.32583606
0003b0 51 2e 83 3d 51 0b e6 3e 1b 97 6a be 56 d2 4c 3f
       0.064053185 0.4493051 -0.22909205 0.8000845
0003c0 63 d1 7c 3e d3 d5 83 bf 6c dd 7d 3c 5e 7e f2 3d
       0.2468925 -1.0299629 0.015494686 0.11840509
0003d0 14 29 25 bf 04 7c 53 be f1 5d 51 3e 11 a6 4c 3f
       -0.64515805 -0.20652777 0.20445992 0.799409
0003e0 2b be 99 3f 93 e2 85 bf 86 ef 80 be 4f c2 33 3f
       1.201116 -1.045977 -0.25182742 0.70218366
0003f0 9d 34 fd bd 97 5e 8c bf b8 df 88 3e af e9 6c 3f
       -0.12363551 -1.0966367 0.26733184 0.9254407

bias f4 [10]
000000 cd 97 cb be c8 33 b2 3f 37 4d 1c 3f db 63 c6 be
       -0.39764252 1.3922052 0.6105532 -0.3874806
000010 7d 2a 88 3f c6 31 33 40 53 4d 72 be 3f b1 f9 3f
       1.0637966 2.799913 -0.2366231 1.9507216
000020 a5 7e ba bf 50 51 5c bd
       -1.4569899 -0.053788483
