saved_params/bin_ocr.pth (torch, 4504 bytes, 1 tensors)

weight f4 [784, 1]
00000000: 8ceb ca3f afb1 72bf 7819 9bbf 95c2 4f3f
00000010: 1920 d6bf c742 1440 6f8e f83f ee2e 5bbf
00000020: 6c83 ac3f f251 eb3d 780b 9f3e 66b9 ef3e
00000030: b883 b03d 2347 d43f 0fcd 1340 3de4 88bf
00000040: 6dfb 8b3f 6eb6 e5be 5f4f ae3d 5073 8bbf
00000050: 427b 23bf e7c2 96bf 0751 9bbf 50fd c0bb
00000060: 5fbd fabe 539d b93e 8e45 29be fc19 e23d
00000070: 39da a2be 0a41 50bf ddd8 d43e 155d 52bf
00000080: c7e5 f23e 3647 c6bf 7ad1 5bbf 1465 913e
00000090: 9c4c cc3b 42c5 3c3f 5331 6ebe 4826 bebd
000000a0: 7e2b b5be 3bb2 8d3f c50c 56bf a7ba 77bf
000000b0: 321f 8ebf e1f2 97bf 590c a93f 5d9f de3e
000000c0: 1ede e63e 6406 0bbf 6f27 83be 1c93 833e
000000d0: eb11 6fbf c6e5 3b3f 582f 233f 3753 883f
000000e0: b04a 9cbd 00ec 523e 1938 e9be bfc3 a1bf
000000f0: d2c8 bcbf 3ecc 01bf 9062 133f f0e8 7a3f
00000100: da8d 93be 7631 623f 0eee 913f 2ada 72bf
00000110: 427e dfbe a6f7 f43e fa78 2640 202b eebf
00000120: 4fac 0b3e 867b b23f 6ebb f4be 4b4b f63e
00000130: 362d db3f 93eb 303f e5ad 8cbe eaf5 9e3e
00000140: c01e eb3f b87f 093f b725 3cbf 733b 0940
00000150: c473 b0bf e301 e5be c549 e43e 1773 70bf
00000160: 8ab3 49bf 9297 1340 f207 a5bf 5fc0 aebd
00000170: b856 04c0 b498 ca3e 9ae2 0cbf 5e46 67bf
00000180: d8b2 9abf c912 f43e 27a5 a8be e806 aebe
00000190: fc53 9bbf 23a7 703f 8607 be3e 7e0f 943e
000001a0: ed04 2abe 5359 413f 0b5b 88bf bb18 5f3e
000001b0: 1dcf 34bf 0223 7f3e 43b6 073f aa40 6bbd
000001c0: 4cab 99be 367f 883f 2b8c 07bf 7fa9 443e
000001d0: 7e8f 60bf 08ca a3bf 2f32 393f b9e1 12be
000001e0: 643c 443e 11bf 7c3e e98d 06bf 0445 043f
000001f0: 444f 3e3f 106d 3440 7c37 50be 79f1 3dbf
00000200: 53f3 e33e 4acd 8a3f 5217 bdbe 67df 403f
00000210: 61a3 893f 65d8 1abf 0354 c13e 56c5 d03c
00000220: 0afa e83e 6363 00bc 96a8 43bd 2c68 f13e
00000230: 135e 8a3f 0844 15bf 4f52 57be a616 8b3f
00000240: 7eb1 553f b031 9fbf 4dc3 243f b65a 0d3f
00000250: e023 ca3c 4653 b2be e70c 85bf 367f a93e
00000260: 54de b5bc 8a2b 36bf a47e 20bf 2228 95be
00000270: 9092 b83d 050e 8c3f 6026 5bbe 565d 193f
00000280: 4687 acbf 72c9 573f ecda 6c3d 4fdc 57bf
00000290: 4120 403f 06e4 1940 681f f53e 0a73 aa3e
000002a0: d3fd b8be 73d1 c8bf 29a9 a93e aef9 40bf
000002b0: a051 56be 2754 8cbf 9c1f a0bf 8900 65bf
000002c0: 5451 2d3e 3485 7a3f 46b1 a83f 303a f1bf
000002d0: 7d4f 9b3f 5270 a13f 1074 613e 638a f83d
000002e0: 76a2 023f a95a 98be 22a9 a7bf 1a72 ac3e
000002f0: cd61 503f 2b7a a5be e756 af3f 3840 2f3f
00000300: 7b4a 47bf d4f4 e8bf a71c 0fbf 79c2 7cbf
00000310: 7e56 0840 5b24 f03f d949 2bbe 2407 91be
00000320: 6244 f03f 2c1c 8c3f 6f68 f93f 3f84 503e
00000330: da09 04c0 e746 483f c1b3 ce3e c226 3dbf
00000340: d8cb 823e 4b7a 303f 9a92 d23e 7e1a edbf
00000350: e013 023f 6c66 9bbe 84e3 8b3d b5ee a63f
00000360: 51a8 e2bf 9bd6 57bf ea76 133e 944f d03f
00000370: 4a41 3fbf ee87 ae3f 6078 263f 886a 95be
00000380: 68eb e4bf b57c 0b40 f59a f8bf 5c8c 9bbf
00000390: 417e 3340 afd7 ae3f 25bc 5b3f ec6f 86bf
000003a0: 9bfa 113d 7cc5 85bd 5f6f f53c ee8d e3bd
000003b0: 49ea a7be 6df7 983e 7ceb dabe 90a9 6c3f
000003c0: ccb1 bfbe 646a cd3e 2a47 96be 7623 8d3e
000003d0: 71ae 08bf 45e5 0b3e 92d1 2b3f 4d76 e63e
000003e0: 3c56 c5bf 941e d0bf 5e10 a9bf 336a 78be
000003f0: c5d6 18bf 2ddd 8abe 8dc0 dcbf cce0 133f
1.5853133 -0.94802374 -1.2117147 0.81156284 -1.6728545 2.3165758 1.9418467 -0.85618484
1.3477607 0.11490239 0.31063437 0.46821135 0.08618873 1.6584209 2.3093908 -1.0694653
1.0936104 -0.44865745 0.085112326 -1.0894566 -0.6385995 -1.177823 -1.2134103 -0.005889572
-0.48972604 0.3625284 -0.1653044 0.110401124 -0.31807116 -0.8134924 0.41571704 -0.8217328
0.4744093 -1.5490482 -0.8586651 0.2839743 0.0062347185 0.7373849 -0.23261003 -0.09284645
-0.35384744 1.1070017 -0.83613235 -0.96769184 -1.110327 -1.1870996 1.3206893 0.4348096
0.45091337 -0.54306626 -0.25616023 0.25698173 -0.93386716 0.7339748 0.63744116 1.0650395
-0.07631433 0.2059784 -0.45550612 -1.2637862 -1.4748785 -0.50702274 0.5757227 0.98011684
-0.28819162 0.8835672 1.1400774 -0.9486414 -0.43651015 0.4784519 2.6011338 -1.8606911
0.1363995 1.3943946 -0.47799248 0.4810432 1.7123172 0.6910946 -0.2747642 0.31046993
1.8368759 0.5371051 -0.7349505 2.1442535 -1.3785329 -0.44728002 0.44587532 -0.93925613
-0.7878958 2.306126 -1.289305 -0.085327856 -2.067793 0.39569628 -0.55033267 -0.90341747
-1.2085829 0.47670582 -0.329385 -0.33989644 -1.2135005 0.9400503 0.37115115 0.2891807
-0.16603442 0.7552692 -1.0652784 0.21786778 -0.7062853 0.24915698 0.53012484 -0.057434715
-0.30013502 1.0663822 -0.52948254 0.19205283 -0.8771895 -1.279603 0.723422 -0.14343919
0.19163662 0.24682261 -0.5256029 0.5166781 0.743397 2.8191566 -0.20333666 -0.74196583
0.4452158 1.0843899 -0.36931854 0.75340885 1.0752984 -0.6048644 0.37759408 0.025484722
0.45503265 -0.007836196 -0.047768198 0.4714979 1.0809959 -0.5830693 -0.21027492 1.0866287
0.83473957 -1.2437038 0.64360505 0.5521654 0.02467531 -0.34829158 -1.0394562 0.33104867
-0.02220074 -0.71160185 -0.6269324 -0.2913218 0.090123296 1.0941778 -0.21401358 0.59908044
-1.3478782 0.84291756 0.057825968 -0.8432054 0.75049216 2.4045424 0.47875524 0.33290893
-0.36131153 -1.5688919 0.3313687 -0.7538098 -0.20929575 -1.0963181 -1.2509646 -0.8945394
0.16925555 0.978595 1.31791 -1.8845882 1.2133633 1.2612402 0.2201693 0.1213577
0.51029146 -0.29756668 -1.309849 0.33680803 0.8139923 -0.3231977 1.3698395 0.68457365
-0.77848023 -1.8199716 -0.55903095 -0.9873424 2.130279 1.8761095 -0.1672739 -0.2832576
1.8770869 1.0946097 1.9484996 0.20362948 -2.0631013 0.7823319 0.40371516 -0.73887265
0.25546145 0.68936604 0.41127473 -1.852371 0.50811577 -0.3035158 0.068305045 1.3041598
-1.7707616 -0.84311837 0.14400831 1.6274285 -0.74709 1.3635232 0.6502743 -0.2918284
-1.788434 2.1794865 -1.9422289 -1.2152209 2.804581 1.3659571 0.8583396 -1.0502906
0.035639387 -0.06531808 0.029960332 -0.11111055 -0.32795933 0.2987627 -0.42757785 0.9244623
-0.37440336 0.40120232 -0.2935117 0.27566117 -0.53391176 0.13661678 0.67116654 0.4501213
-1.5416942 -1.6259332 -1.320812 -0.24259262 -0.5970271 -0.2712187 -1.7246262 0.5776489
