inference/param/MNIST_bin_classifier.pth (torch, 4774 bytes, 1 tensors)

weight f4 [784, 1]
00000000: 93f3 38c0 ee3a b43e 9320 83bf e667 973c
00000010: 3eef 0cbf 374b 5e3f fe1d 94be 8a0c f0bf
00000020: 7e49 f13e b142 9b3f df75 a5bf d1a0 79bd
00000030: e59f 3cbf 8277 20be 8f3e 043c b13e e63e
00000040: fbff a33f 7c17 d43f a495 5c3f 433d 96bf
00000050: ded6 8fbd d7e4 5d3f 8970 39be 8395 943f
00000060: 0916 72bf cb67 143e 4d0d d7bf b367 b03b
00000070: ee82 47bf 3c93 b4bd 48e8 0c3f 62d0 88bf
00000080: 2bab b0bf 484b 0f3f 3aa0 203f 678b 133f
00000090: af43 8f3d 3f50 cabf eb50 bcbe 274c b5c0
000000a0: 0fab 0dc1 ec2f 83c0 c6d3 373f 6b72 9f3f
000000b0: 3c9d 663f 454f 85bf 5738 cb3e dd0a 4ebb
000000c0: 108a 823f 3ea9 96be 76f1 8d3d 89ee 563f
000000d0: 66ba 0fbe af67 16bf dde0 3bbf 25e9 43bf
000000e0: 3c46 7d3f 068d 08bf 002b 663f 3b08 0dc0
000000f0: e29c 293f a2e3 89be e9b1 7fc0 5884 e6bf
00000100: 7e4e 18bf 4eab 97bf 1733 e7bf 2e42 a9be
00000110: 305a 6441 d517 ea40 e1e7 c73f c58c 033f
00000120: 50cb 4140 efb0 4d41 9fc5 eb3f 4471 45bf
00000130: 8c73 3d40 5736 8e3f 3445 46bf e617 9bbc
00000140: 030b 683e 245a 07be 98ae d0be 7fc4 733e
00000150: 9054 3ebf eece d3be 1d13 983e 5033 8cbf
00000160: 3a52 e0be e340 043f 4e6f 173f 93ca 1e3f
00000170: b9c1 75bf 003e 2740 fd8e cf3f d397 513e
00000180: 7d1d 983f 0fd9 0d40 d8e7 f53c 815f 113f
00000190: d055 db3e 9c18 ba3e 651c d7be 7791 eabe
000001a0: 6b07 8ebf df39 93bf cf2a c2bf b130 c8be
000001b0: dee3 2bbf 5abd 013e 82f0 07be 64c6 0a3f
000001c0: 6944 153f fb04 b33e 02e9 0d3e 8550 1740
000001d0: fe5c ff3f 9b99 6c3f 50b5 103f 1de3 61bf
000001e0: 5280 593d 8ba1 ef3d 92db e43f 33c5 69bf
000001f0: da65 f23e 2f64 f53e e87e 38bf a47b a13c
00000200: 5498 b6be ed2e 2040 f961 e4be 790d e7be
00000210: e117 8c40 ee28 ebbf cb39 bfbf 740e ccbf
00000220: 8cfa 51c0 847c c2bf 26c7 ac3e fb7f 35bf
00000230: 7fdc 7f3e 3d1d d4bf af4b ff3f 92ba d5be
00000240: 698c 1c40 714a ec3f ca32 d8bf 015f 263f
00000250: 323c d33e 6b96 91be 263a 89be 5ed4 853e
00000260: 6959 c73d 3518 af3f 1e43 8abf e0fa fcbe
00000270: 5ea8 0c3e 8a95 f73c c979 243f 908f 53bf
00000280: 034f 573f ee1f f93f 3f8b 1740 e2a5 d83f
00000290: 5dd6 8cbe 67b5 2c40 a98c 0f40 777d 82bf
000002a0: 35c4 4e3f e8b0 91be b04b 7ebf d041 7ebf
000002b0: bf4a 8640 3762 803f 4578 c4bd 892c 5ebf
000002c0: 6b8a f13f 5986 00c0 9935 993e a02a 4abe
000002d0: 096d 1c3e dafc 2d3f d57c 24bf 2fdd 023f
000002e0: f958 e73e c82b bebf 777f b8bf 7372 b53e
000002f0: e5d9 0cbe 5493 4f3f df68 7ebf f44c 453f
00000300: edfe 1a3f 2bb6 afc0 96fc 2fc0 d5aa cd3f
00000310: 95ad 8f3f 9257 49bf 8784 c73f e5fd 0a40
00000320: d695 b140 3f75 02be ec3d 9abe 5d06 043f
00000330: 3ead 253f 8901 46bf c726 1fbf 9195 2c3d
00000340: e45b 003f 86c1 803e 72c5 4fbf 0e69 ec3e
00000350: 47cf debe 3dd4 22bf dc22 1bbd 5be3 263f
00000360: e25a 7e3f 6763 8a3f 7595 f7bf 0871 af3f
00000370: 5d26 44be 7ad4 03c1 b8c6 1f40 dec9 c7bf
00000380: 9f2f a4bf 6c82 cabe 3c8c 12c0 8421 cb3f
00000390: dc70 a540 f777 883f 0bb0 20bf ed99 a83e
000003a0: e305 f83f 2e0c 4bbf 754f 3abf fd36 a83d
000003b0: a922 b8be 7e74 c23e b1fc cf3f f8a8 50bf
000003c0: a6c4 573e 32b1 9ebf 1b71 283f 9e99 46bf
000003d0: 9d81 b53e 36e5 f7be 562c cbbf 6563 a6bf
000003e0: 892f 48bf 1913 6dc0 272e b6bf efb0 a13f
000003f0: 99e0 03be 2d7d 4c3f 0a8e 0340 37bd 83bf
-2.8898666 0.3520121 -1.0244316 0.01848216 -0.55052555 0.8683352 -0.28929132 -1.8753827
0.47126383 1.2129728 -1.2926596 -0.060944382 -0.7368148 -0.15670589 0.008071556 0.44969705
1.2812494 1.6569667 0.86165833 -1.1737446 -0.070234045 0.86677307 -0.18109335 1.1608127
-0.9456487 0.14492719 -1.6800934 0.0053834557 -0.7793416 -0.08817145 0.55041933 -1.0688593
-1.3802236 0.55974245 0.62744486 0.57634586 0.069953315 -1.5805739 -0.36780486 -5.665546
-8.854262 -4.0996 0.71807516 1.2456793 0.9008367 -1.0414816 0.3969142 -0.003143958
1.0198383 -0.29425997 0.06930821 0.83957726 -0.14035949 -0.5875196 -0.7338999 -0.76527625
0.98935294 -0.53340185 0.8990936 -2.2036273 0.6625501 -0.26931483 -3.9952338 -1.8009138
-0.5949477 -1.1849153 -1.8062466 -0.33058304 14.272018 7.315409 1.5617639 0.5138667
3.0280342 12.855697 1.8419684 -0.77125955 2.9601774 1.1110333 -0.77449346 -0.018932294
0.2266045 -0.1321798 -0.40758204 0.23805426 -0.7434778 -0.41368812 0.29702082 -1.0953159
-0.43812734 0.5166151 0.5915421 0.62027854 -0.9599872 2.6131592 1.6215512 0.20468073
1.1883999 2.2163732 0.030017778 0.5678635 0.42838907 0.363469 -0.4201385 -0.45814106
-1.1096014 -1.1502036 -1.5169314 -0.3909965 -0.6714457 0.12669888 -0.1327534 0.5420897
0.5830751 0.34964737 0.13858417 2.3642895 1.9950254 0.92421883 0.5652666 -0.8823717
0.05310089 0.11700734 1.7879508 -0.9131653 0.47343332 0.47927997 -0.72068644 0.019712277
-0.35663092 2.5028641 -0.44605997 -0.45127466 4.377915 -1.8371866 -1.4939512 -1.5941911
-3.2809172 -1.5194249 0.33745688 -0.7089841 0.24986456 -1.6571423 1.9944972 -0.41743904
2.44607 1.8460218 -1.68905 0.64988714 0.41256863 -0.28435072 -0.26802176 0.26138586
0.097338505 1.3679262 -1.0801733 -0.49410152 0.13736102 0.030222673 0.6424833 -0.82640934
0.8410494 1.9462869 2.367874 1.6925623 -0.27507296 2.698572 2.2429602 -1.0194539
0.8076814 -0.2845528 -0.9933424 -0.9931917 4.1966243 1.0029973 -0.09593252 -0.86786705
1.8870367 -2.0082 0.29923704 -0.19742823 0.15275969 0.67963946 -0.6425298 0.5111875
0.45185068 -1.4857111 -1.4413899 0.3543888 -0.13754995 0.8108418 -0.9937877 0.77070546
0.60545236 -5.4909873 -2.7497916 1.6067759 1.1224848 -0.78649247 1.5587319 2.1717465
5.5495405 -0.12740038 -0.30125368 0.5157221 0.6471747 -0.7734609 -0.62168545 0.042134825
0.50140214 0.25147647 -0.8116065 0.461739 -0.43517515 -0.636051 -0.03787504 0.65190667
0.99357426 1.0811585 -1.9342486 1.3706369 -0.1915526 -8.239374 2.4965038 -1.560848
-1.2827033 -0.3955263 -2.2898092 1.5869603 5.170027 1.066161 -0.6276862 0.32929936
1.9376796 -0.7931546 -0.7277749 0.08213613 -0.35963944 0.379795 1.624899 -0.81507826
0.21071109 -1.2397826 0.65797585 -0.7757815 0.3545045 -0.48417062 -1.5872905 -1.2999083
-0.7819753 -3.7042906 -1.4232835 1.2632121 -0.12878646 0.79878503 2.0555444 -1.0292119
