inference/param/MNIST_multiclass_SLP.pth (torch, 32998 bytes, 2 tensors)

weight f4 [784, 10]
00000000: 450f 813f 19bd 813f 543a d3be fd3f aabf
00000010: a041 573c 0ead 9abf bc81 0d3e 3906 10bf
00000020: 4cff 15bf 0468 0b3f 6086 a2bd 3c52 1ebf
00000030: d38d 39bf 3f31 93bf 5ceb 283f 00d1 1abf
00000040: e6ab 103f deb3 5cbf 7c77 333e 951d 85bf
00000050: 37c6 f4be 9213 9b3d a87b cfbb bfbf 0840
00000060: c6cf 06bb f7d6 9f3f 5b87 62bf 6d1f 02bf
00000070: 9551 173f 450b f3bf 2896 42bf 3cf1 3abf
00000080: 9cf6 55bf 4018 f03e 9649 5f3f da65 883f
00000090: e36f ad3f 674b 5abe 0a63 f4bc ca5c 423f
000000a0: 7e90 283d a798 d83c e88c e93d 458a b4bf
000000b0: 6ea3 a33f 0d33 603f f2cf 873f 8324 d53e
000000c0: c80c 893f 709f f23e 5ab9 45bf d689 afbe
000000d0: 9398 89be 9478 01bf 12fa 8abf e9d1 7f3f
000000e0: cd79 3f3f 801c 30be 9f6a b4bd 9e48 a43c
000000f0: 6663 80bf d67e 82be fb6d 703f a30a d43e
00000100: d027 60bf 8372 eb3f fd4c cbbe d08d febd
00000110: 0084 c8bf 57e2 ac3d 7fb2 8abe 3aba 50bf
00000120: da18 1cbf 796d b0be 9944 9a3f da26 41bf
00000130: 3690 8ebf 2a05 173f 739f fabe ff87 4c3f
00000140: a7a1 3e3f b041 b0bf f350 e0be 6580 8bbf
00000150: 89fd 713f 8055 f3bf 8894 b53f bc5f 12c0
00000160: 3707 b93e 053c e8be 3df7 7abf c2c9 cb3f
00000170: 7c73 54bf 5d34 a93f 8722 cdbf 1aa4 5d3f
00000180: e0d4 00c0 72b7 eb3f 4706 8a3f 2264 6fbd
00000190: 1850 09be dd8f 22bf e499 28bf e061 e83e
000001a0: 92bd cebc 9317 1e3f 308a c2bf b92b 143e
000001b0: 6a3c 67bf c4be 8d3f 6537 a3bf cfd4 8e3f
000001c0: b8b5 4dbf db3f 8ebf 63df 403f 6835 3dbf
000001d0: fc9d b9bf 0d00 cd3e d1ab 0bbe 41cc ac3e
000001e0: 26cb 9bbe 0041 24bf ee46 8bbe e7fe 103f
000001f0: b262 9b3e a1c9 5dbf eb16 c33f 71be 5f3f
00000200: 60f0 47bf e026 723e 7134 d43d 7e6d 1d3f
00000210: c4b1 9bbf de1b 8ebf 3dd8 07bf 8b59 213f
00000220: 75c8 50bf 62f7 4bbf 6e39 b63f bad2 ad3c
00000230: d975 9bbe 4e18 c1bf c507 9e3f 480c 223f
00000240: 08a6 4abf 810a f2bf a54a 8abf 37f9 833d
00000250: edfd f7bf 0319 d4be 4fcc 053f 10e0 8e3f
00000260: 8585 a53f ac3b 353e 13db 273e cc58 bbbf
00000270: 9ab8 11bd 6e7c 8dbf bb4e 5c3b 2b0f 9cbf
00000280: 1e0c 323f 8ce6 453e f653 043e 6add 7a3e
00000290: 576e a6bd b353 8f3f 1860 69bd 0829 9abe
000002a0: c9ca 883f 04f7 83bf 5335 703e ea44 cdbe
000002b0: ea68 17be 13e3 b43f c49f 4b3f ba06 913f
000002c0: 56ef 5c3f 2f3b 4ebf e295 f13e 3210 56be
000002d0: 77bf 64bf 67f2 74be 1e67 0340 d19e e23f
000002e0: 8758 01bf 75dd 993f bbe0 13c0 068a d13e
000002f0: a903 cfbf 7aa2 98bf 13fc 16c0 4298 643f
00000300: 2705 463e 7cea 3f40 1087 a1be 057d aa3f
00000310: 1726 99be a019 b6bd 3379 0cbe cce6 81bf
00000320: 04f3 9bbf 9a82 6bbf ecc9 17bf 4bde 313e
00000330: 1e6c a2bf ab22 4f3f 3ecc dbbe fab8 203f
00000340: 4b7e 393e b527 8d3f 6b6d 013f 486c 18bd
00000350: 5c25 9ebf 349a 0e40 b348 0f3f 31f1 ff3e
00000360: 1fb0 a3bf 4766 0e3f 534e df3e 8f5c 82be
00000370: 470e b3be 9a15 263f dcff 38bf 44e3 dd3f
00000380: e6cf 6abf 58a8 513f 7e8b 72be 31c7 aebf
00000390: 2cd4 b0be 0268 4bbf cabd bebf 05ad 0340
000003a0: 7c91 1440 5b81 3b3f ef4f a5bd 82c4 90bf
000003b0: 57b5 a93f 2fab 1b3f 42c3 24bf 80b2 183f
000003c0: a94d a5bf bd3c cb3d 0256 afbe 8130 3c3f
000003d0: f36f 9f3e 69b9 85be f170 9ebd b70b 173f
000003e0: 4d8d 0140 fb66 293e 4243 67bd c7c0 57bf
000003f0: f543 38bf 0fc5 343f fa9b 103f 808b 36bf
1.0082785 1.0135833 -0.41255438 -1.3300778 0.013138205 -1.2084062 0.13819021 -0.56259495
-0.5859268 0.5445559 -0.07935786 -0.6184423 -0.7248203 -1.1499404 0.6598413 -0.6047516
0.56512296 -0.86211956 0.17526048 -1.0399653 -0.47807476 0.07572092 -0.0063318796 2.1367033
-0.002057062 1.2487477 -0.88487786 -0.508292 0.5910886 -1.8987814 -0.7601037 -0.73024344
-0.8357942 0.468935 0.8722166 1.0656083 1.354977 -0.21317826 -0.029832382 0.75922835
0.041153423 0.026439978 0.11403829 -1.4104697 1.278425 0.875779 1.0610335 0.4162942
1.0707026 0.47387266 -0.7723595 -0.34284848 -0.26874217 -0.5057461 -1.0857565 0.9992967
0.7479523 -0.17198372 -0.08809399 0.020054158 -1.0030334 -0.25487393 0.93917817 0.41414365
-0.8756075 1.8394321 -0.39707175 -0.12429392 -1.5665283 0.084416084 -0.27089307 -0.8153416
-0.6097542 -0.3445852 1.2052184 -0.7544991 -1.113776 0.58992255 -0.48949775 0.79895014
0.7446541 -1.3770046 -0.4381176 -1.0898558 0.9452749 -1.9010468 1.4185953 -2.2870932
0.36138317 -0.4535829 -0.98033506 1.5920947 -0.82988715 1.3219105 -1.6026162 0.86578524
-2.0129929 1.8415358 1.0783166 -0.058445103 -0.1340946 -0.6350077 -0.6585982 0.45387173
-0.025236879 0.6175472 -1.5198421 0.14469804 -0.9032656 1.1073842 -1.275128 1.1158694
-0.80355406 -1.1113237 0.7534086 -0.73909616 -1.4501338 0.400391 -0.13639762 0.33749583
-0.30428427 -0.6416168 -0.27202553 0.5663895 0.30348736 -0.86635786 1.5241369 0.87399966
-0.7810116 0.23647642 0.10361565 0.61495197 -1.2163625 -1.1102254 -0.5306433 0.63027257
-0.81555873 -0.7967435 1.4236276 0.021218646 -0.30363348 -1.5085542 1.2346121 0.6329999
-0.79159594 -1.8909456 -1.080403 0.06444018 -1.9374367 -0.41425332 0.52264875 1.1162128
1.2931372 0.17698544 0.16392164 -1.4636474 -0.03557644 -1.1053598 0.0033616263 -1.2192129
0.6954974 0.19326228 0.12922654 0.24498525 -0.081265144 1.1197418 -0.056976408 -0.3010943
1.0686885 -1.0309758 0.23457842 -0.4009164 -0.14786115 1.4131798 0.7954066 1.1330178
0.863027 -0.80559057 0.47184664 -0.20904616 -0.8935465 -0.23920594 2.0531688 1.7704717
-0.50525707 1.2020708 -2.3105915 0.40925616 -1.6172992 -1.1924584 -2.3591354 0.89294827
0.19337903 2.9986868 -0.31548357 1.3319403 -0.29911873 -0.08891606 -0.13718109 -1.0148559
-1.2183537 -0.9199616 -0.59292483 0.17369954 -1.2689245 0.80912274 -0.42929262 0.6278225
0.18114583 1.1027743 0.50557584 -0.03721264 -1.2355151 2.2281618 0.55970305 0.49988702
-1.2788123 0.5562481 0.43614444 -0.25461242 -0.3497183 0.6487671 -0.7226541 1.7334981
-0.9172348 0.818975 -0.23686025 -1.3654538 -0.34536874 -0.7945558 -1.4901669 2.0574353
2.3213797 0.73244256 -0.08071887 -1.130997 1.3258466 0.6080808 -0.6436044 0.5964737
-1.2914325 0.09923694 -0.34245306 0.7351151 0.31140098 -0.2611802 -0.077363856 0.5900225
2.0242493 0.1654319 -0.056460626 -0.8427853 -0.71978694 0.7061319 0.56488 -0.7130661

bias f4 [10]
00000000: b675 07c1 0f8e f63e d6c4 5b3f 5bc1 50c0
00000010: e277 103e 5e49 7841 07fa 5abf a5ba 9340
00000020: 2917 19c1 414c 5cc0
-8.466238 0.48155257 0.8584722 -3.2618015 0.14108232 15.517912 -0.8553776 4.6165338
-9.568154 -3.4421542
