inference/param/MNIST_bin_perceptron.pth (torch, 404600 bytes, 3 tensors)

W1 f4 [784, 128]
00000000: e7a6 a2bf 19e4 3340 a9ef b2be f5fd 023e
00000010: 5a3a 8f3f 09c0 403b 45a4 393f 203f 9b3f
00000020: 017b 763f 4d5e e23e 4299 003f 79d2 f7bf
00000030: 8053 a93e 6443 0c3e f05d f5bd dc98 81bf
00000040: f020 74bf bd88 cabf 6e38 163c b3c5 203f
00000050: 6ef8 b1bf dfe6 863f ce23 b73e d2d4 36bf
00000060: a952 f4be 963f 0140 e224 12bf 3383 263f
00000070: 860b e1bf 5fa3 263f 1595 a33f dddd b33f
00000080: 45b4 1f3f c8e0 013f 59f6 92bc 73da 87bc
00000090: 9cee 11bd 49de 23bf ca0b 31be a0bc dabd
000000a0: 0900 833f 8214 033e 8adb eebf e0ee 15bf
000000b0: 5214 393f 3c9a b53f 1734 d5be 57f4 bdbf
000000c0: ab73 97bf 84f1 a3be 9c2a d6bf a334 183f
000000d0: 7462 b5bf 85e1 e1bf aaea 2a40 d788 c43f
000000e0: e8ed 87bf a3c3 9dbe 6894 59be e504 f3be
000000f0: c7de 30bf ac22 7dbf ed12 0940 48a2 cdbf
00000100: f651 afbe b6da 0040 fa80 f7bf 0151 69bf
00000110: 1ea3 863e 6528 043f c906 10bf 59bd f43f
00000120: 0911 c03f 2db4 88bf 4aa7 36bf 130c 0240
00000130: bbba 18c0 b117 493f e8b3 643f 2b75 85bf
00000140: df9d bbbd f07a 2abf b8e1 ac3e cdc7 bdba
00000150: eefc 73be edc6 d83e 041a 2abe 46ce 95bf
00000160: 525e b7be 442d 943e afea 7f3d 9074 213f
00000170: 1e71 8abf 639f b2bf b337 2c3f 901b 8f3f
00000180: d5b3 74be d039 6b3f 427f b13f 0df8 1c3f
00000190: cc9e 533f 4ec2 dbbe f424 d4bf aedc cd3f
000001a0: 80b5 e5be bc14 97be 3d6a e93f f323 b33f
000001b0: 56b9 31bf 34f7 bd3f b336 84bf 0fa2 243f
000001c0: 9af1 b53f b83a 0d3f 73d2 063f 752a c73f
000001d0: 8a8a 59bf 6156 923f ae4a 62bf 9108 13bf
000001e0: efad 923e 9a63 9e3f daa8 d5be b327 b63f
000001f0: d164 823f 7d64 0c3e 04e8 87bf 557e 173f
00000200: fa02 b23e 64df 6ec0 5181 a0bf ac1d 81bf
00000210: faff 863e d97c 0940 97e0 c9be 34a5 c9bf
00000220: 1a54 db3e 36f8 99bb a786 86be 4aaf 12bf
00000230: 8129 8a3e 746a ff3e afcf 7f3c 5b33 52be
00000240: c64b f83d 2c9b ecbf dbe1 b33e 9912 6bbf
00000250: afe1 87bf d885 edbe 703c b0bf c99a 573f
00000260: be1b 1e3e de7f 783e aa9f af3d 8d78 adbf
00000270: ee39 2cbe a880 e73e 8d88 17bf f2f6 b6bf
00000280: 58c0 4e3b 3261 89bf 50d2 adbf 3498 333f
00000290: 10d7 c53e 5648 81bf 30bf 4e3f 94d7 843f
000002a0: 45f4 72be 8883 633f ef7a a33f 39f1 90bf
000002b0: 30a7 cdbe 0130 9cbf a3ba 2ebf 58a4 30bd
000002c0: 52fd 6f3e a9f6 4cbf 0c72 463f 7b2b a43d
000002d0: 4daf 413f b889 003f fdd5 a63e f460 a7bf
000002e0: bc6c 8c3f f490 303e c864 7c3f d029 733f
000002f0: c16e 0bbf a99d 06bf 577e 663e 5386 223f
00000300: 7ea2 a9bf a487 54bf 273f fe3f 4aa2 ae3e
00000310: b502 53bd c713 06c0 cd5a 96bf 55bd 03bf
00000320: 7d0e 1a3f b65f 3abf 1446 a1bd 973c d03f
00000330: 6610 f5be b7b8 0040 119e 3fbf 3b51 793f
00000340: 3058 fb3e dc48 663d 7d6a 1ebf 2955 cbbc
00000350: dc29 2e3e 0578 713e 608d f53d aaaa 313f
00000360: 4df3 b83e 4a08 c43f f613 32bf f9d1 3b3e
00000370: cb82 323e abf3 1cbf 40ca 97be 6bb3 823f
00000380: f682 fabf d590 81bf 5023 7a3e bc1e 0ebe
00000390: bd8c a73f bfef b9bf efa9 013f 5f51 d3be
000003a0: 7244 bfbf d820 d53e 6b20 c7be ec1e f8be
000003b0: e476 41bf 4b47 26bf 8ed3 0fbd acaa 323f
000003c0: 0a05 843d cd22 25be 6636 60bf 56c3 bb3e
000003d0: b2bd 2e3f e36d 4c3c 2868 063f a3f8 813c
000003e0: 0312 193f 4ea9 16bd e2c0 7a3f f94e a9be
000003f0: ebdb f4be d288 ccbe aac7 9d3f 0b25 30be
-1.2707185 2.810797 -0.3494847 0.1279219 1.1189682 0.0029411337 0.7251628 1.2128639
0.9628144 0.4421257 0.5023385 -1.9361106 0.33071518 0.13697582 -0.11980808 -1.0124774
-0.9536276 -1.5822979 0.009168727 0.62801665 -1.390394 1.0539206 0.35769504 -0.7141849
-0.47719315 2.019506 -0.5708753 0.65043944 -1.7581642 0.65093035 1.2779871 1.4052082
0.62384444 0.50733614 -0.017939733 -0.016583657 -0.035627946 -0.64011055 -0.17289653 -0.106805086
1.0234386 0.12800792 -1.8660748 -0.5856762 0.7229663 1.4187694 -0.41641304 -1.4840192
-1.1832174 -0.320202 -1.6731753 0.5945532 -1.417067 -1.7646948 2.6705728 1.535426
-1.0619478 -0.3081332 -0.21248019 -0.47464672 -0.6908993 -0.9888103 2.1417801 -1.6065149
-0.3424222 2.013349 -1.9336236 -0.9113923 0.26296324 0.5162414 -0.56260353 1.9120284
1.5005199 -1.0679985 -0.7134901 2.031987 -2.3863971 0.78551775 0.89337015 -1.0426382
-0.09160971 -0.6659384 0.3376596 -0.0014479101 -0.23826954 0.42339268 -0.16611487 -1.1703575
-0.35814148 0.28940785 0.06247967 0.63068485 -1.0815771 -1.3954891 0.6727249 1.1180286
-0.23896725 0.9188509 1.3866961 0.61315995 0.8266418 -0.4292168 -1.6573777 1.6082971
-0.44865036 -0.29508007 1.8235546 1.3995346 -0.69423425 1.4841065 -1.0329193 0.6430978
1.4214356 0.5516772 0.5266487 1.5559832 -0.8497702 1.1432611 -0.883952 -0.57434946
0.28648326 1.2374146 -0.41730386 1.4230865 1.0187017 0.13710208 -1.061768 0.5917714
0.34767896 -3.7323847 -1.2539464 -1.008718 0.2636717 2.148245 -0.3942916 -1.5753541
0.42837602 -0.0046987785 -0.26274607 -0.5729872 0.2698479 0.49885905 0.0156134805 -0.20527403
0.12123828 -1.8484855 0.35133252 -0.9182525 -1.0615748 -0.46391177 -1.3768444 0.8422056
0.1544027 0.24267527 0.085753754 -1.3552414 -0.16818973 0.45215344 -0.59192735 -1.4294112
0.0031547751 -1.0732787 -1.3579807 0.7015412 0.38640642 -1.01002 0.8076048 1.0378289
-0.23725994 0.88872576 1.2771891 -1.1323615 -0.40166616 -1.220215 -0.68253535 -0.04312548
0.23436478 -0.80063874 0.7751777 0.08016106 0.7565811 0.5021014 0.32585135 -1.3076463
1.0970683 0.17242795 0.9859128 0.94985676 -0.5446587 -0.5258432 0.22509132 0.6348621
-1.3252714 -0.8301947 1.9863023 0.34108192 -0.051516254 -2.094957 -1.174646 -0.5146077
0.6017836 -0.72802293 -0.078746945 1.626849 -0.47864074 2.011274 -0.74850565 0.9738957
0.4909072 0.056221828 -0.6188124 -0.024820881 0.17008156 0.2358094 0.11989856 0.6940104
0.36123124 1.531503 -0.6956171 0.18341817 0.17432706 -0.6130931 -0.29646492 1.0211004
-1.9571216 -1.0122324 0.24427533 -0.13878912 1.3089825 -1.452629 0.50649923 -0.4127302
-1.4942763 0.4162662 -0.3889192 -0.48461092 -0.7557204 -0.64952534 -0.035113864 0.69791675
0.064462736 -0.16126557 -0.87583005 0.36672467 0.682582 0.012477371 0.5250268 0.01586563
0.5979311 -0.036782555 0.97950566 -0.33068064 -0.47824034 -0.39948136 1.2326558 -0.17201631

B1 f4 [128]
00000000: 6afa d9bf 8069 953f 4cc2 c63e f9af 793f
00000010: a729 fbbf ca76 963e edb3 8bbf 5dde e2bf
00000020: 92e2 13bd b34a b53e f77f eabf eb66 6bbe
00000030: 58d3 c93f 0967 40bf 3cdd 163e 9fd4 5e3f
00000040: fa61 b33f ab27 9e3f 0154 d0bf 64f0 9bbe
00000050: 2cbf 273f 8c57 133e fd0e 98bf fe65 29ba
00000060: d103 123f c387 54bf 6043 b43e f26c 27bf
00000070: c17e 37bf 8267 b03f 35a2 403f f9ec 853f
00000080: ae83 30bf 712a 3c40 fdcf 03be ec2f 68be
00000090: 0598 dfbf 68af b23f ba06 1c3f 36e3 89bf
000000a0: d606 18be c751 803f 5ac2 b53f 70d6 4fbe
000000b0: b32d 4e3d a3fb 493f c803 5c3f a496 d5be
000000c0: ede8 013f cbfa a3bd 1bb7 abbf 91e5 9b3f
000000d0: 60ae 9dbe 54d3 073e 9a28 053f a384 133f
000000e0: 21a2 3540 27eb cf3f 278f b8bf 8877 2fc0
000000f0: 1120 3b3f 6580 203e 77c1 553f 471e 06bf
00000100: df9c cd3f a5a1 3c40 109f 7b3f 1ae8 b43d
00000110: 1a29 573f ebf5 1b3e d871 9cbf e478 0fbf
00000120: 5684 67bf 7df0 21bf d25a 74bf f541 27bf
00000130: 6699 563f db56 b93f 4a86 6abf 8f78 35c0
00000140: 4eb0 0dbf 1f81 9dbf a9ef f63d 753f 1cbf
00000150: 599b bbbe 5211 cdbf 6723 afbf 9eef 3dbf
00000160: 2ac9 d83d 56ee 383f 3086 bcbb d4c4 72be
00000170: ff97 fcbd f59e f03e 8a24 e23f 06e0 4cbf
00000180: e598 af3e b6b3 4fbf d318 9ebe 183b fb3f
00000190: 77ef d2be da38 82bf 1b86 0540 6bc3 c13e
000001a0: 5cbd 6bbe ff24 acbf d536 b63e e303 08bf
000001b0: 463d d7bf 2433 72bf cec6 75bf 4213 41bf
000001c0: 01ee ff3e 5649 963f e90e c53d ea30 643e
000001d0: 1de3 023f cd05 c5be 5576 07bf 9f98 9d3f
000001e0: 738f d2bf 6dc3 013f 709b 323f 72f0 db3e
000001f0: 59c4 3e3f 2eef 623f 42ee 673f 7e95 4a3f
-1.7029545 1.1672821 0.38820112 0.9753414 -1.9622086 0.29387504 -1.0914284 -1.772411
-0.036104746 0.35408553 -1.8320302 -0.22988479 1.5767622 -0.7515722 0.14732832 0.87043184
1.4014275 1.2355856 -1.6275636 -0.3045684 0.6552608 0.14388865 -1.1879574 -0.00064620364
0.57037073 -0.83019656 0.35207653 -0.6540061 -0.71677786 1.3781588 0.7524751 1.0462943
-0.6895093 2.9400904 -0.1287231 -0.2267453 -1.7468268 1.395978 0.60947764 -1.0772464
-0.14846358 1.0024956 1.4199936 -0.20296645 0.05033655 0.7889959 0.8594327 -0.41716492
0.5074604 -0.08006819 -1.3415254 1.2179433 -0.307971 0.13264209 0.5201508 0.5762426
2.8380206 1.6243638 -1.4418687 -2.7416706 0.73095804 0.15673979 0.8349833 -0.5238995
1.6063498 2.947366 0.98289585 0.08833332 0.8404709 0.15230529 -1.2222242 -0.5604384
-0.90436304 -0.6325758 -0.9545108 -0.6533502 0.8382782 1.4479631 -0.9161116 -2.8354833
-0.55347145 -1.230503 0.1205743 -0.6103433 -0.36641958 -1.6020911 -1.3682679 -0.7419375
0.10585244 0.7223867 -0.005753301 -0.23707896 -0.123336785 0.46996275 1.7667401 -0.8002933
0.34296337 -0.8113359 -0.30878314 1.9627409 -0.41198322 -1.01736 2.0863101 0.37844405
-0.23021454 -1.344879 0.3558871 -0.5313093 -1.6815574 -0.94609284 -0.96006477 -0.7542001
0.4998627 1.174113 0.096219845 0.22284284 0.511278 -0.38480988 -0.52914935 1.2312201
-1.6450027 0.5068882 0.6976843 0.42956883 0.7451835 0.8864621 0.9059793 0.79134357

W2 f4 [128, 1]
00000000: 1e30 e4be e01b 283f 1778 4dbd a8e0 33c0
00000010: ec4d a5bf 0252 b13f 94e5 0abf ceee 33bf
00000020: 8a5f 573f c8dc 5b3e b301 a03f 8a27 803f
00000030: 9960 acbe e63c 413f 5b56 6abf 13ba 5c3e
00000040: c4b9 d13e e786 3f3f a808 043f 32ee 6ebf
00000050: 0760 3a3f 6433 b03e b6b0 70bd c843 98be
00000060: c21c 0c3f 7ce7 633d d22d 3cbf ab74 e5be
00000070: 593c 0d3f 6629 82bf d4c0 bb3e 7823 c73d
00000080: ed86 e93d 8354 9e3e b876 3a3f adb9 cdbe
00000090: a306 afbf 5821 9d3f 007d a5bf 7fc2 9d3e
000000a0: 5707 11bf da17 75bf c45f 04bf b358 efbe
000000b0: 2d07 eabe 706d 0ebf 3d99 a4be 117a 8f3f
000000c0: 8f35 40bf 7040 94be 04a9 4ebf c25d 03bf
000000d0: 07fa d13e b48b b5bf ff71 713f a2b7 e23e
000000e0: 1c66 113f eb7f a4bf cd27 0040 6def bf3e
000000f0: fa5a 64bf 95d4 6a3e 8416 583f 9936 a73e
00000100: f2cf 64bf 750e b3be c00d 3440 8512 5f3f
00000110: 8230 61bf 561e 03c0 1725 6d3e 9de3 c1bf
00000120: 9fe3 1b3f fa10 203f 0ac2 3a3f 9020 2abf
00000130: 04f1 3d3f cd18 b6be 50ba ba3e 23f6 41bf
00000140: 6f4b dd3f a5e3 cdbf 8f73 1e3e 476b 693f
00000150: 7388 08bf 1785 b13f 1040 04bf b8a7 ee3d
00000160: 32c8 97bd 5420 b13f 858e 19bf dec0 05c0
00000170: 8a0e a43f 79ea 96be 8f06 50bf a0f3 c7be
00000180: 0d9d 353f dd44 d6bf 4b44 683f 31ec b33f
00000190: bc49 1a3f d44c 413f f37d 52bf 1c34 213f
000001a0: 5843 d23d 275c 9b3f b2b9 f83f 7a69 c63f
000001b0: 6426 1bbf 24f0 34be de20 52bf 09a2 50bf
000001c0: ee4a bf3e e057 5fbe 23a7 bbbf 2ce0 be3f
000001d0: 04dc b8be bfad 9dbf 0d65 8c3f 68c7 043f
000001e0: 005b 27bf 51ad 64bf 98f6 22bf 5d86 833f
000001f0: 07e4 06bf 333a 2a3f b5f9 1fbf 297e 1f3f
-0.4456796 0.65667534 -0.050163355 -2.810587 -1.2914405 1.3853152 -0.5425656 -0.7028626
0.84130156 0.2147094 1.2500519 1.0012066 -0.33667448 0.7548355 -0.9153802 0.21555357
0.4096204 0.7481522 0.5157571 -0.9333221 0.72802776 0.34414208 -0.058762275 -0.29739213
0.5473138 0.055640683 -0.73507416 -0.44815573 0.5517021 -1.0168884 0.36670554 0.09723562
0.11402688 0.30923852 0.728374 -0.40180722 -1.36739 1.2275801 -1.2928772 0.3081245
-0.56651825 -0.9573952 -0.51708627 -0.4674736 -0.457086 -0.5563574 -0.32148162 1.1209127
-0.75081724 -0.28955412 -0.8072665 -0.5131494 0.41011068 -1.4183259 0.9431457 0.44280726
0.5679643 -1.2851537 2.0024292 0.37487355 -0.8920132 0.22932656 0.84409356 0.32658842
-0.893798 -0.34971967 2.8133392 0.87137634 -0.8796464 -2.0487266 0.2315868 -1.5147587
0.608942 0.62525904 0.7295233 -0.66455936 0.74195886 -0.35565796 0.3647027 -0.757662
1.7288646 -1.6085097 0.1547377 0.9117932 -0.53333205 1.3868741 -0.5166025 0.116530836
-0.07411231 1.3837991 -0.5998309 -2.0898967 1.2816937 -0.29475763 -0.8126001 -0.3905306
0.70942765 -1.6739765 0.90729207 1.4056455 0.6026876 0.75507855 -0.82223433 0.6297014
0.10266751 1.2137498 1.943167 1.5500939 -0.60605454 -0.17669731 -0.820814 -0.81497246
0.37361854 -0.21810865 -1.4660381 1.4912162 -0.3610536 -1.2318648 1.0968338 0.5186677
-0.6537323 -0.8932696 -0.6365752 1.027538 -0.5269169 0.66495055 -0.624904 0.6230188
