inference/param/MNIST_multiclass_SLP.pth (torch, 32998 bytes, 2 tensors)

weight f4 [784, 10]
000000 12 00 c2 be fb 48 06 40 a4 27 e4 be e1 11 1b c0
       -0.3789068 2.0982044 -0.44561493 -2.4229662
000010 09 7d 33 3f 27 75 fd be 67 87 22 3f 91 b5 a2 3f
       0.70112664 -0.49503443 0.6348786 1.271166
000020 7f bf 3a 40 76 0f b2 3f 00 c6 77 bf d5 71 b9 3e
       2.917938 1.3910968 -0.967865 0.3621966
000030 19 38 75 bf 33 57 ef 3e c7 2f d0 3e 18 77 4f bf
       -0.95788723 0.46746215 0.4066145 -0.810411
000040 50 c6 68 3f 71 d3 93 3f df 9c f4 bf ec 27 8e be
       0.909276 1.1548902 -1.9110373 -0.27764833
000050 6c 1c 71 3f 4f 7d c3 bf fb cb cf bf 1a e8 73 bf
       0.94183993 -1.5272616 -1.6234125 -0.95276034
000060 3b e0 a2 be d9 0b c5 bf e1 1d 3b 3f 2a f9 3e 3f
       -0.318117 -1.5394241 0.73092467 0.74598944
000070 b9 59 05 bc 33 f7 0a 3f 43 05 39 bf 41 a0 ac be
       -0.008139067 0.54283446 -0.72273654 -0.33716014
000080 ec fa 8c 3f e8 5f 1d bf bb 60 02 3f aa 57 e2 3e
       1.1014075 -0.61474466 0.5092885 0.44207507
000090 ee f3 49 3e 57 02 4f bd dd a3 20 be 15 4c 4d bf
       0.19721958 -0.05053934 -0.15687509 -0.80194217
0000a0 53 50 71 3f 97 f9 40 be 71 83 e2 3f 98 eb b6 bd
       0.9426319 -0.18845211 1.7696363 -0.08931655
0000b0 25 5c d5 be d4 a9 92 be 6b 88 b1 3f 39 47 59 bf
       -0.41671863 -0.28645194 1.3869756 -0.848743
0000c0 ae ab 47 3f ec 17 8e bf 2a 6c 44 be cd dc 85 be
       0.7799634 -1.110105 -0.19181886 -0.2614502
0000d0 ab 01 94 3d aa 15 64 3f f7 84 09 3f c7 4f e1 3f
       0.07226881 0.89095557 0.53718513 1.7602471
0000e0 3c 7a a0 3f de 7c 20 bf 57 e6 ec 3f e3 80 51 c0
       1.2537303 -0.6269053 1.8507794 -3.2734916
0000f0 59 09 8e bf 0f c0 ea be 7c 94 70 bf 5e 30 a7 3f
       -1.1096603 -0.45849654 -0.9397657 1.3061635
000100 80 11 7c 3f 3e 0e 7e 3d 83 1c 45 bf 19 df bf 3e
       0.984642 0.0620253 -0.7699663 0.37474898
000110 4d 29 67 bf 20 9f 60 ba 8f 49 ee bf b5 38 85 bf
       -0.90297395 -0.00085686333 -1.8616198 -1.0407931
000120 29 fe 87 3f ed 49 07 3f 2e a4 3c bf 28 e6 40 3f
       1.0624439 0.52847177 -0.7368802 0.7535119
000130 b8 83 10 c0 14 9d 20 bf 42 25 5c 3d 97 ac 6f bf
       -2.2580395 -0.6273968 0.05374647 -0.93622726
000140 a0 ad 41 3e 69 d3 06 40 00 96 fa 3e 0d 20 06 3f
       0.18913889 2.1066535 0.48942566 0.52392656
000150 1b 9e 4a 3e 0e 68 75 3e 0f 80 cd bd 67 a5 08 3f
       0.19786875 0.23965475 -0.10034191 0.53377384
000160 89 48 e5 be 7d 84 ba 3f 2c 18 0d bf c7 1a cb bf
       -0.44781902 1.4571682 -0.5511501 -1.5867547
000170 e5 86 4b be e6 2a 9a 3f d7 23 67 bf e8 0c 48 bf
       -0.19875677 1.2044342 -0.9028906 -0.78144693
000180 a6 89 90 bf 92 e7 03 bf 9f 8d 31 c0 2b 28 95 3c
       -1.1292007 -0.51525223 -2.7742689 0.01820763
000190 15 85 a0 bf 46 13 83 be 43 f0 6f 3f c1 b6 41 40
       -1.2540613 -0.25600642 0.93725985 3.0267794
0001a0 a3 a0 78 bf 65 ba 19 bf 5f 52 e4 bf ea e1 66 3f
       -0.9712011 -0.6005004 -1.7837638 0.9018847
0001b0 55 af 8f 3e 17 01 07 bf 1c 86 77 be 8c d7 11 be
       0.28063455 -0.5273604 -0.24172252 -0.14242381
0001c0 a5 99 88 3f 30 37 f5 3f 51 b5 2b 3f 3d c4 6a 40
       1.0671889 1.9157467 0.6707354 3.6682274
0001d0 fe 62 95 3f 70 a3 b0 bf 14 b3 b0 bf 67 68 59 3e
       1.1670835 -1.3799877 -1.380465 0.21231233
0001e0 0a 8b ae be 7a 25 29 3f 5a da 14 c0 34 d4 f5 bf
       -0.34090453 0.6607281 -2.3258271 -1.9205384
0001f0 bd 22 10 bf 6b d6 21 3e bf 4b 39 3e e2 b0 e1 bf
       -0.56303006 0.1580445 0.18095301 -1.7632105
000200 28 ea 13 bf 30 68 e7 bc 2e 86 de bf 18 eb aa bf
       -0.5777917 -0.028247923 -1.7384698 -1.3352995
000210 b8 7e 9d bf 50 51 f6 be 0b 0f 34 c0 de ff 90 bd
       -1.2304296 -0.48108912 -2.8134181 -0.07080053
000220 93 85 60 3f a4 81 46 bf 75 84 e7 3e e0 8f 3b c0
       0.8770382 -0.77541566 0.45218244 -2.9306564
000230 e5 0a a5 3e 88 b7 82 bf 86 03 3d 40 3a 4e c8 be
       0.32234874 -1.0212259 2.95334 -0.39122182
000240 bc c3 d1 be 3e 2d 9b bf d3 24 39 c0 6b 64 a5 be
       -0.40969646 -1.2123182 -2.8928726 -0.32303175
000250 58 ba 95 3e 12 5a a4 be 42 af 6e bd 6b 46 99 be
       0.29243731 -0.32099968 -0.058272608 -0.29936537
000260 10 68 3b 3f 2c d1 a1 3e 99 d9 9d be 60 aa 02 3e
       0.7320566 0.31604898 -0.30830076 0.12760305
000270 c7 f7 72 3e 17 7d 8b bf ce 93 0b bf b2 02 77 be
       0.23727332 -1.0897549 -0.5452241 -0.24122122
000280 82 b9 9f 3f fc 6d 92 3e c2 81 2b bf 8e 7c d8 3e
       1.2478487 0.28599536 -0.6699487 0.42282528
000290 bf e7 68 be 94 f3 1e bf 2d 8a fe 3e 4f d0 a0 be
       -0.22744654 -0.6209042 0.49714795 -0.31408927
0002a0 01 5d 65 bf 5c 6e 4a 3e 95 a4 3d 3f 60 0f 23 bf
       -0.8959504 0.19768661 0.7407926 -0.63695335
0002b0 d9 42 3d bf bd e8 04 3e cd 4a 10 3f 96 86 44 3f
       -0.73930126 0.12979408 0.56364137 0.7676786
0002c0 db 0b 5c 3e 07 a5 18 bf cd 10 6a 3f df cc f6 3c
       0.21488898 -0.5962681 0.91431886 0.030126987
0002d0 d1 e2 56 bf 74 09 4c 3f 50 eb 11 40 0c 73 7b be
       -0.83939844 0.79701924 2.2799873 -0.24555606
0002e0 20 78 44 3f 7e ad 86 3f 90 ac 30 3f f4 70 90 3f
       0.76745796 1.0521696 0.6901331 1.128447
0002f0 b4 f2 5e bf ef 43 ba 3f 08 49 9e 3c 4d 17 e2 be
       -0.87089086 1.4551982 0.019321933 -0.44158402
000300 ac e1 3a 3e 93 d2 ba bd 9e 05 18 c0 ba 10 0e 40
       0.1825015 -0.09122195 -2.3753428 2.219771
000310 30 f5 07 3d a7 74 b8 3d 2c 56 ad 3f 02 dc 87 bf
       0.033192813 0.09006625 1.3541923 -1.0614016
000320 42 45 6e 3e d3 6c 5b be aa 78 20 3f e7 1e 19 bf
       0.23268607 -0.21428232 0.6268412 -0.5981278
000330 9e 3d d2 3e 3f 38 e5 3e 07 2f 67 bf 4c 1f cd be
       0.41062635 0.44769475 -0.90306133 -0.4006294
000340 be ea a7 3e 15 61 4c 3f c4 40 bd be 74 bc 32 bf
       0.32796282 0.79835635 -0.36963475 -0.69818807
000350 81 f2 65 3f 4d b5 2e bf fe 8b 58 bf e3 d1 f4 3d
       0.89823157 -0.68245393 -0.8458861 0.11954095
000360 ed e3 ce 3f 4c 55 c6 be f4 bf 97 bf 0b 07 bf be
       1.6163307 -0.3873695 -1.1855454 -0.3731006
000370 50 21 1c bf ac 2e 1a c0 12 4d 17 bf 82 0f ea 3e
       -0.6098833 -2.4090986 -0.59101975 0.45714957
000380 7b ed 01 3f 58 44 e0 bf fe ec 7c be 95 78 cf be
       0.5075299 -1.7520857 -0.2469978 -0.40521684
000390 ff d0 8c bf a1 a6 04 40 da b3 33 bf 19 6b 72 bf
       -1.100128 2.0726702 -0.70196307 -0.9469467
0003a0 e2 6b 28 3d 34 15 a2 be fc 44 11 40 02 72 5b 3f
       0.04111851 -0.31656802 2.2698355 0.8572084
0003b0 3d 07 11 3f 90 15 03 bf 58 87 10 40 af a7 82 3f
       0.5665167 -0.51204777 2.2582607 1.0207423
0003c0 a7 f0 dc be 62 49 a4 bf 09 9a de be 44 ec aa 3e
       -0.43152353 -1.2834895 -0.43476894 0.3338338
0003d0 db 6f 59 bf 6c db bc 3d b8 2b ad 3f 5c 65 26 bf
       -0.849363 0.09221539 1.3528967 -0.6499841
0003e0 74 19 35 c0 30 c3 81 3f 17 38 8d 3f d8 40 11 bf
       -2.8296785 1.0137691 1.1032742 -0.5673957
0003f0 6e 53 ac 3d 26 3e bd bf f8 fa 2e bf ed 39 34 3f
       0.084143505 -1.4784591 -0.683517 0.7040089

bias f4 [10]
000000 19 ee b6 bf 7e 13 d6 3f c0 b6 12 3e 2b 66 5c bf
       -1.4291412 1.6724699 0.14327526 -0.86093396
000010 27 d2 a2 3e 4a 9a 0c 40 5a 9a 10 bf 80 e9 95 3f
       0.3180096 2.196917 -0.5648552 1.1711884
000020 1e 27 1f c0 dd 9e 2e bf
       -2.4867625 -0.68211156
