inference/param/MNIST_multiclass_MLP.pth (torch, 409208 bytes, 4 tensors)

W1 f4 [784, 128]
000000 28 a3 db 3c 8a 08 c3 bf 02 fd 50 3f be 24 64 bf
       0.026811197 -1.5236981 0.8163606 -0.89118564
000010 43 36 34 3e 77 10 4a be dd e0 28 3f 69 dd 09 40
       0.17598824 -0.19732843 0.65968114 2.1541388
000020 da 22 f1 3f bc 95 a1 3e 60 db e1 3e 31 19 95 be
       1.8838761 0.3155955 0.44112682 -0.29120782
000030 1b 23 a8 bf a7 ae b0 3e cb bd 90 3f 5e 5d 8a be
       -1.3135713 0.3450825 1.130792 -0.2702436
000040 3e fe 25 bf 6e 90 32 3f 7c c7 59 bf 14 af e5 3e
       -0.6484107 0.6975163 -0.85070014 0.44860137
000050 28 70 9c 3f a9 ed 36 bf e2 43 b3 bf 53 fa cb 3f
       1.2221727 -0.7145639 -1.4005091 1.5935768
000060 3d e6 77 bf 27 17 7f bf c6 c3 a3 3f 68 a3 31 bf
       -0.9683569 -0.996447 1.279412 -0.69389963
000070 d3 47 60 3f 8f 64 9b 3f 1a 98 04 3f 4f 0f e7 be
       0.87609595 1.2140063 0.5179459 -0.45128867
000080 cd b0 73 3e 6f 38 2b 3f ee b5 10 3f 3c e6 a8 3f
       0.23797913 0.66882986 0.565276 1.3195262
000090 8b 7a 23 40 75 cc 4b 3e 85 a0 00 bf e6 fd 88 bf
       2.5543544 0.19902213 -0.50244933 -1.0702484
0000a0 b9 4e 60 3c 6b df 1d 3d f1 27 ad 3f ec 6a c7 3f
       0.013690644 0.038543146 1.3527814 1.5579505
0000b0 c4 f9 25 bf 07 e1 80 3e 51 15 5c bf 58 4b 05 40
       -0.6483424 0.25171682 -0.85970026 2.0827236
0000c0 de f6 a1 3e ad 9d 82 be 03 a5 94 3f cf 26 f1 bf
       0.31633657 -0.25510922 1.1612858 -1.8839968
0000d0 fd db 21 bf e8 61 87 be 11 30 87 3f ab 53 0b 3f
       -0.632263 -0.26441884 1.0561544 0.5442454
0000e0 1a cd 83 3f d2 81 2c bf cc 70 1c bf 9f ad 24 3f
       1.0296967 -0.6738559 -0.61109614 0.64327425
0000f0 08 44 49 bf d8 35 12 bf b7 10 fd bf 92 18 e3 3f
       -0.7861943 -0.5711341 -1.9770726 1.7741873
000100 0c 1e aa 3f 2a 06 61 be 8a 90 34 3d 96 94 e2 3e
       1.329042 -0.21975008 0.044083156 0.44253987
000110 c3 70 93 bf 07 78 38 3f ba 3d c1 be f8 1e 52 3f
       -1.1518787 0.7205815 -0.37742406 0.82078505
000120 88 4d 4e 3f 51 02 ac be 86 21 ca 3f 2a b4 03 3f
       0.80587053 -0.33595517 1.579148 0.51446784
000130 73 89 d2 3d 87 4f 18 3f 24 8a 12 bf ba d1 1e bf
       0.102801226 0.5949635 -0.57242036 -0.6203877
000140 fc de c5 3e f1 54 2e 3f 71 00 19 3f c0 11 e3 3e
       0.38646686 0.6809836 0.597663 0.4434948
000150 b1 ac 2a 3e 34 cd f6 3f 57 b6 3a 3e a6 39 2c 3f
       0.16667439 1.9281373 0.1823362 0.67275465
000160 f9 c2 2b 3f 16 7c 18 bf fb 48 80 3f 29 8e 59 bf
       0.6709438 -0.5956434 1.0022272 -0.84982544
000170 09 97 c4 3f 3c d7 d1 3e d8 2d a7 3f 52 d0 29 bf
       1.5358592 0.40984523 1.3060865 -0.66333497
000180 95 3b 6d be e7 b3 35 be 89 ca 94 bf cd 50 3c bf
       -0.2316726 -0.17744409 -1.1624309 -0.7356079
000190 74 4d 5d 3e 0d 43 79 bf 06 6d 2b be a4 13 0b c0
       0.21611577 -0.97367936 -0.16740808 -2.1730738
0001a0 d3 c4 c0 3f 53 42 43 be 27 05 39 bf 2d 23 07 3e
       1.5060066 -0.1906827 -0.72273487 0.13197012
0001b0 cb b4 df bf 60 02 31 3f 5b 32 b1 bf 30 66 87 3f
       -1.7477049 0.6914425 -1.3843492 1.057806
0001c0 ba ef 84 3f 1d 6a 25 3f 53 b8 30 3f f6 b5 1f 3f
       1.0385659 0.6461504 0.69031256 0.62387025
0001d0 e2 c0 2c 3f 49 7e c2 3f 81 6a 3a 3f 35 16 28 bf
       0.67481816 1.5194789 0.7281876 -0.65658885
0001e0 91 35 8e 3f 9b 13 be bf e2 0a bc 3e 52 9b 66 bf
       1.1110097 -1.4849733 0.36727053 -0.9008075
0001f0 90 1d b7 bd bf a3 4c bf 08 32 95 be 33 45 8f 3e
       -0.089411855 -0.79937357 -0.29139733 0.27982482
000200 f8 72 05 3f 13 1b 09 bf ce 94 16 bf ff 15 0c 40
       0.52128553 -0.53556937 -0.5882081 2.1888425
000210 3f 7b 25 3f 37 ae 9e be 98 4e 45 3f 59 05 d6 3e
       0.64641184 -0.3099229 0.7707305 0.41800955
000220 98 92 36 be 6b c2 70 3e a4 45 4f 3f be f5 89 3f
       -0.17829359 0.23511665 0.8096564 1.077812
000230 b2 ef 79 3e eb e5 8f bf 32 b9 01 3f dc 8d a8 3e
       0.24407843 -1.124204 0.5067321 0.3292073
000240 f8 6d 83 3f 70 52 47 bf 5d 49 53 3c 99 8a 4e 3e
       1.0267935 -0.77860165 0.012895909 0.20170058
000250 27 bf 64 3f 99 83 ca 3e 12 62 30 bc fa 48 05 be
       0.89354175 0.39553526 -0.010765569 -0.1301612
000260 68 19 65 3f 0b 1a 75 bf 89 38 be 3f f4 a8 8e bf
       0.8949189 -0.95742863 1.4861003 -1.114531
000270 d5 d6 20 be 26 7d 48 bf 60 e6 78 3f 07 c3 2a 3f
       -0.15706952 -0.7831596 0.97226524 0.6670384
000280 7a b5 79 bd c0 e8 eb be b8 8a ae 3e 66 a3 06 3f
       -0.060964085 -0.46076012 0.3409021 0.52593076
000290 e6 b2 c7 be bb bf ae bf a4 21 f8 be 7f d4 6b 3f
       -0.39003676 -1.3652261 -0.48463166 0.9212112
0002a0 a3 b6 0f bf 98 f0 84 bf bb b2 8d 3f a4 ce 55 bf
       -0.56138057 -1.0385923 1.1070169 -0.83518434
0002b0 ae 2a f0 3f 2c 41 0e c0 ea 93 eb bf 3f 00 d8 bf
       1.8763025 -2.2227278 -1.8404515 -1.6875075
0002c0 48 22 3a 3e ae fb a6 3e b7 3c 62 bf 04 69 c2 bf
       0.1817714 0.3261389 -0.88373893 -1.5188298
0002d0 57 c6 4c bf bb a5 c8 be 3f 27 e2 3d 94 74 90 3e
       -0.7999014 -0.39188942 0.11042642 0.28213942
0002e0 00 ad 9d be 13 fa 94 3f 1f d3 fc bf b3 63 a6 bf
       -0.3079605 1.1638817 -1.9751929 -1.2999176
0002f0 6f c9 cc 3e dc 81 40 3f 74 ba c8 bf d5 fd 21 3c
       0.39997432 0.7519815 -1.5681901 0.009887178
000300 f2 6c 13 3f 4d 56 91 3e 17 10 d5 3e 92 2b f9 3f
       0.5758811 0.28386155 0.41613838 1.9466422
000310 b8 2b 61 3f a8 81 2f 40 cd e6 f5 3d d7 55 ea 3e
       0.87957335 2.7422886 0.120069124 0.45768616
000320 7a b6 86 3f 0e 0f e8 be 65 d8 da 3e 8d b1 fe 3e
       1.0524437 -0.45323986 0.4274322 0.49744835
000330 55 d3 2b c0 ce 84 1e 40 2c b9 d1 3f 22 9b 3c bf
       -2.6847737 2.4768558 1.6384635 -0.73674214
000340 24 83 29 3f 50 15 80 3f f1 db 0f 40 26 79 52 3f
       0.6621573 1.0006504 2.2477992 0.8221611
000350 59 ea 81 bf d5 4e 7f bf f5 da 1c bf 5e 69 8e 3e
       -1.0149642 -0.99729663 -0.612716 0.27814764
000360 ab fb 79 be 90 e2 08 3f 8f 8e fb 3f f8 0e 0f bf
       -0.2441241 0.53470707 1.965288 -0.55882215
000370 fb e0 a1 3f 6e 15 98 bf 6e cf b1 3f ca 12 a3 bf
       1.2646784 -1.188154 1.3891428 -1.2740109
000380 ed 5e 03 3f df 7a 07 bf 55 db 54 3f 31 08 9a bf
       0.5131672 -0.5292186 0.83147174 -1.203375
000390 a5 16 07 3f 32 2b a5 3f 0b a1 75 bf ab bb ba bd
       0.5276893 1.2903807 -0.9594886 -0.09117826
0003a0 a7 b9 1e bf 9e f1 8c 3e fa 01 b4 be 23 88 ae 3e
       -0.62002033 0.2752809 -0.35157758 0.3408824
0003b0 72 1a bc bf ee db bc be 95 62 ee 3e 56 73 17 40
       -1.469557 -0.36886543 0.46559587 2.3664145
0003c0 21 fa 9e bf 30 a6 31 bf 7b 5c 98 be ac 65 11 bf
       -1.2420083 -0.69394207 -0.29758057 -0.56795764
0003d0 ce b0 0f be 45 e4 b2 bf f9 19 a6 bf 88 ba 23 3f
       -0.1403229 -1.3975912 -1.2976676 0.639565
0003e0 c9 13 9b 3f 21 f4 ff 3f c4 98 07 bf 47 a0 fa be
       1.2115413 1.9996377 -0.52967477 -0.48950407
0003f0 b9 bd 5a 3f 2d 64 96 3f 14 45 b9 bf 59 fc 75 bd
       0.85445744 1.1749321 -1.4474206 -0.06005511

B1 f4 [128]
000000 13 da 35 bf 48 7b 22 3f c2 3c 83 3d d2 c1 3c 3f
       -0.7103588 0.6346936 0.06408073 0.73733246
000010 74 e1 b9 bf cc b3 44 bf d6 a6 a4 bf 23 a7 40 bf
       -1.4521928 -0.7683685 -1.2863414 -0.7525503
000020 32 6d 5a bf f9 e8 bd 3f 13 27 72 bd 44 9e 04 40
       -0.8532287 1.4836723 -0.059119295 2.0721598
000030 0e 13 ab bb b8 d9 2b bf 3c 74 d7 bf ed ca 03 40
       -0.0052207774 -0.6712909 -1.6832347 2.0592606
000040 7c 05 c3 3f 49 22 81 3e bd e4 df 3f cf a6 d0 3d
       1.5236049 0.2522147 1.749168 0.10188066
000050 8a 8c b8 be 85 ec a3 be c6 3f d2 3e 17 3c 5f bf
       -0.36044723 -0.32016388 0.4106428 -0.87201065
000060 9f f7 12 3f fb c6 02 3f 81 55 33 be de 25 49 bf
       0.5740909 0.5108487 -0.17513086 -0.78573406
000070 7b e6 45 bf 2d bb e8 bf 89 77 2d be 6e 6c fa be
       -0.7730481 -1.8182122 -0.1694013 -0.4891085
000080 91 0e 4b bd 0c e9 4c 3f 28 58 96 bf d1 29 3e 3e
       -0.04957444 0.800431 -1.1745653 0.18570639
000090 b7 92 04 c0 b5 00 b1 be f7 cd 2e bf d3 97 c1 be
       -2.0714548 -0.34570852 -0.6828303 -0.37811145
0000a0 45 1f 5b bf 19 e3 de be 60 96 ca 3e 08 d9 06 bf
       -0.8559459 -0.43532637 0.39567852 -0.52674913
0000b0 ce 18 11 c0 ae cb 06 3f 28 46 35 3f 21 55 b5 3f
       -2.267139 0.5265454 0.70810175 1.4166604
0000c0 7e 9c 12 be af 88 23 be ef 74 94 3e 29 51 31 3f
       -0.1431751 -0.1597011 0.28995463 0.69264466
0000d0 6c 02 3e 3f 18 74 3a bf 37 2e d0 3f 08 77 4f bf
       0.74222445 -0.72833395 1.6264104 -0.81041
0000e0 dd 4d 61 3f b1 89 9e 3f e9 65 d0 be 1f f8 9c 3f
       0.88009435 1.238577 -0.4070275 1.226322
0000f0 4b 18 14 bf ed f2 ab 3e 5c 17 6e 3e 87 8a 21 be
       -0.5784957 0.33583775 0.23251098 -0.157755
000100 79 24 c9 3f ae ca f0 bf 62 cd ae bd bb d0 65 be
       1.5714256 -1.8811853 -0.085352674 -0.22442906
000110 1f a9 57 3f d5 13 30 bf 4b 78 0a 40 ec 5c 1c bf
       0.84242433 -0.6878026 2.163592 -0.6107929
000120 94 a7 07 bf 26 26 e4 3f 0f 5e bf 3f a5 24 12 bd
       -0.5299008 1.7824142 1.495058 -0.03567948
000130 f0 e9 85 3f 5f aa fc bd e7 f9 8b bf db 06 d6 bf
       1.0462017 -0.12337183 -1.0935639 -1.6720842
000140 6b 16 5e 3f a6 4e 8f 3f 52 93 0f be 41 72 2e 3e
       0.8675296 1.1195877 -0.14021042 0.17035772
000150 aa 2a 25 bf 28 fe 97 3f 56 1f 51 3e 92 1e db 3d
       -0.64518225 1.1874437 0.2042211 0.1069919
000160 59 00 2d 3e 16 14 7b 3f e8 4d 28 40 4c 95 84 3f
       0.16894664 0.98077524 2.629755 1.0358062
000170 15 92 4f 3f 02 16 18 3f 92 df 48 bf 48 0f 9b 3f
       0.8108228 0.5940858 -0.7846614 1.2114038
000180 74 ed ca bf fe 65 4f bf d9 fb 19 3e 0f 8e f3 3e
       -1.5853715 -0.81015 0.15037479 0.4756932
000190 05 31 f4 be 76 b1 38 be fa 8e fa 3e f7 8d 59 be
       -0.4769365 -0.18036446 0.48937207 -0.21245562
0001a0 c3 b4 db bf c8 ab 56 bf 94 cf 5a 3f c8 9b fa 3d
       -1.7164539 -0.8385587 0.8547299 0.12236744
0001b0 d6 d7 64 bf a4 5e b5 3f 2a 90 2b 3f 71 e0 1b 3f
       -0.8939184 1.4169507 0.6701685 0.60889345
0001c0 43 a6 56 bf 67 c7 9a bf b6 24 00 3e 46 e5 2a bf
       -0.83847445 -1.2092103 0.12514004 -0.66756094
0001d0 87 03 44 3f 9d e1 b0 3f 42 45 64 3f 0c 11 09 bf
       0.7656788 1.3818852 0.8916818 -0.53541636
0001e0 fe 8b 32 3e e7 66 e5 3d 4e 89 8e bf 45 67 81 3e
       0.17436215 0.11201268 -1.1135652 0.252741
0001f0 8c ce 9d 3f d3 da 76 bf 42 fc dc be 96 30 71 3f
       1.2328658 -0.9642765 -0.43161207 0.9421476

W2 f4 [128, 10]
000000 79 3d 22 40 3a 91 02 3f 6b 49 e2 be 63 5d 21 bf
       2.535002 0.5100285 -0.44196638 -0.6303312
000010 0f 31 30 c0 8e b7 e2 3f e1 5b a9 3f 6d d8 01 bc
       -2.7529943 1.7712266 1.3231164 -0.007925135
000020 8e 94 bf be b2 7d 89 bd 3b 6f 8e 3e 41 bf e3 be
       -0.37418026 -0.067134276 0.27819237 -0.44481853
000030 03 09 70 bf 18 1b aa bf 4c 8d 0a 3f bd bc f7 be
       -0.9376375 -1.3289518 0.5412185 -0.48386183
000040 cc a6 72 3e 4d a2 6b bf 09 34 b6 ba 20 24 d4 3e
       0.2369644 -0.92044526 -0.0013901006 0.4143381
000050 b8 ea b4 3f ea bf 9c be 1e 65 1d 3f a8 cd 95 be
       1.413413 -0.3061517 0.6148242 -0.29258466
000060 01 6b 1a 3f cd 48 05 3f 66 ac 1e bf 4b fe 0e 3f
       0.60319525 0.5206421 -0.6198181 0.5585677
000070 73 fa 59 3f dc f3 69 be 18 a9 76 bf b4 93 8c be
       0.8514778 -0.22846931 -0.96351767 -0.2745644
000080 b7 00 ed bd df c1 a2 bf df 55 86 3e 32 08 83 3e
       -0.11572402 -1.2715415 0.2623739 0.2559219
000090 b9 50 1c bf 13 66 a8 3e 00 0a bb bf 2d be 8a 3d
       -0.61060673 0.32890376 -1.4612427 0.067745544
0000a0 31 85 89 3d e9 c6 c0 3e d3 39 ab bf c6 91 b4 3e
       0.06714857 0.37651756 -1.3377022 0.35267466
0000b0 ba 03 8d be 35 27 8d bf 4d 7b 93 3e 58 80 6b 3f
       -0.27541906 -1.102759 0.2880501 0.9199271
0000c0 6d 36 bf 3f 7e 91 be 3f 25 f2 e6 bd c4 65 a6 bf
       1.4938484 1.4888151 -0.11276654 -1.2999806
0000d0 e3 6b 97 bf 08 8b 66 3f c6 ec d8 be 57 1a 26 3f
       -1.18298 0.90055895 -0.42368144 0.6488394
0000e0 8d ad 0e bf 43 a0 a7 be 45 ba dc bd de a9 02 bf
       -0.5573357 -0.32739457 -0.107777156 -0.51040447
0000f0 89 1c 0c 3e 1e a3 ca 3f f3 12 c4 3f 17 25 29 3f
       0.1368276 1.583103 1.5318283 0.6607222
000100 3c fd 26 3e 9d b0 e0 3e b4 aa 6b bf 85 44 f8 bf
       0.16307539 0.43884745 -0.9205735 -1.939591
000110 9d d4 f3 3f f9 7c 8c 3e bd 31 68 bf ae 6a cd bf
       1.904926 0.27439097 -0.90700895 -1.6048181
000120 b2 35 9c 3f 1a 53 6e 3e 7a 39 e5 3e e8 2e db bf
       1.2203887 0.23273888 0.44770414 -1.712369
000130 94 28 57 bf b8 90 3e be 4b 76 ef bd cc 1e 9e 3f
       -0.8404629 -0.18609893 -0.116924845 1.2353148
000140 db 7c 3e bf 76 fa a7 3e a1 46 bc 3d 2f 08 34 3f
       -0.74409264 0.32808274 0.09193159 0.7032499
000150 b6 f6 05 c0 e6 24 40 3f 28 25 27 bf 10 aa 4e 3f
       -2.093183 0.750563 -0.6529107 0.80728245
000160 9b 70 d1 3e 35 8e eb 3f 83 81 05 be e5 94 23 3d
       0.40906224 1.8402773 -0.13037686 0.03993692
000170 17 39 5c bf 79 af 16 3f 81 b9 b0 3e 18 f1 e6 3e
       -0.8602461 0.588615 0.34516528 0.45105815
000180 aa 8a 12 40 85 7c 52 3f bd 76 36 3f 93 47 3e bf
       2.2897134 0.8222125 0.7127493 -0.74327964
000190 2e a0 f6 bf f2 34 1b 3e ed ca 8c bf 18 18 38 3f
       -1.9267633 0.15156916 -1.0999428 0.71911764
0001a0 2a 26 3b bf b7 db 89 be f2 18 90 bf b7 76 2e 3f
       -0.7310511 -0.26925442 -1.1257613 0.68149894
0001b0 5a 95 aa be b1 0d a1 3f 5b 20 df 3d c1 9c 8a bf
       -0.3331707 1.2582303 0.10894843 -1.0829087
0001c0 33 f7 4a 3e 90 fb 9b 3d fd f4 8d bf 17 66 a2 bf
       0.19820862 0.07616341 -1.109039 -1.2687405
0001d0 aa 5c 92 3d 5c b2 0e 3f 2c 45 fa bf e1 05 08 bf
       0.071465805 0.55740905 -1.955236 -0.5313397
0001e0 c6 9d 26 3f 7e a2 da bf c3 2f dc bf ae 22 6d bf
       0.65084493 -1.7080839 -1.7202076 -0.9263104
0001f0 dd 51 6e 3e f8 c7 d7 be 90 ed 26 bf 15 ea 84 bf
       0.23273416 -0.42144752 -0.6520624 -1.0383936
000200 80 56 c2 3e cc 8a 96 3e e0 a8 00 bf fb 82 d6 bf
       0.3795662 0.2940277 -0.5025768 -1.6758722
000210 53 ec 13 bf 86 92 ef be d6 28 af 3e 23 58 dc 3d
       -0.5778248 -0.46791476 0.34210843 0.10758998
000220 e6 38 af be da ba 77 be 4f 4f ec bf 49 28 82 be
       -0.34223098 -0.24192372 -1.8461703 -0.2542136
000230 95 77 4a c0 38 0d 66 40 e5 c4 69 bf 41 b3 ce 3f
       -3.1635487 3.5945568 -0.9131606 1.6148454
000240 c1 d1 e5 3f e9 4b cb 3f 15 24 bc bf 0b 45 75 3f
       1.7954637 1.5882541 -1.4698511 0.95808476
000250 8d ea 1a 3f be b1 ce 3f 00 c8 79 bd 41 94 66 bf
       0.60514146 1.6147993 -0.06098175 -0.9006997
000260 27 54 10 bf 80 f1 6d 3f b6 08 e1 be a7 6f cb 3e
       -0.56378406 0.92946625 -0.43951958 0.3973362
000270 49 64 47 be 0c 0b d1 bf 61 a1 c5 be 5f 1f 92 bf
       -0.1947185 -1.6331496 -0.38599685 -1.1415824
000280 ce 19 d5 bf 78 f3 b0 3f ee 24 a6 3f b9 2f b6 3f
       -1.66485 1.3824301 1.298002 1.4233314
000290 db 37 62 be 26 90 53 bf 89 4b a7 be 2c 7c 58 bf
       -0.2209162 -0.8264183 -0.32674816 -0.8456447
0002a0 d2 8d 1c 3f 1e 94 e3 bf c9 4f 97 bd 0d dd 5d bf
       0.611539 -1.7779577 -0.07388265 -0.8666542
0002b0 62 27 5e 3f 0b c0 82 bd 8e c0 e2 3e b8 09 e3 bf
       0.86778843 -0.063842855 0.44287533 -1.7737341
0002c0 f9 77 06 c0 e0 fd be 3f c8 d0 95 bf 95 e6 69 bf
       -2.1010725 1.4921227 -1.170434 -0.91367465
0002d0 bc 3c 17 3f 55 e2 6a 3f 4e 97 46 be f6 1d 96 bf
       0.5907705 0.91751605 -0.19393656 -1.1727893
0002e0 28 68 3f 3f 15 32 b4 3e ca e3 13 3f 27 0c c5 be
       0.74768305 0.3519446 0.57769454 -0.38485834
0002f0 9d e3 ad 3f a0 1f 38 3f 6f a7 8d 3f 49 ab c2 3e
       1.3585087 0.71923256 1.1066722 0.38021305
000300 96 28 f2 3d c4 f0 a7 3e b2 85 e7 bd 26 e4 97 bf
       0.118241474 0.32800877 -0.11304797 -1.18665
000310 08 80 17 be 81 19 b2 3e 09 4f f4 be 47 20 8c 3f
       -0.14794934 0.34785083 -0.4771655 1.094735
000320 80 2d 2e bf 33 81 e2 3f 8f 99 cc 3e aa 7f fc be
       -0.6803818 1.7695678 0.39960906 -0.4931615
000330 dd f9 04 3f 8f 5a bd be 5e 16 48 3f 7c 49 32 bf
       0.5194376 -0.36983153 0.7815913 -0.6964338
000340 a9 72 7c 3f a1 3f ae be 95 b2 a1 3f 9b 31 bf 3f
       0.9861246 -0.3403292 1.2632624 1.4937013
000350 a2 57 42 3e c1 80 0d 3d 72 9d 83 bf e3 5b 7b 3f
       0.18978742 0.034546617 -1.0282423 0.98187083
000360 9a e7 89 3f d3 c7 5e bf 88 be 00 3f 06 a7 92 bf
       1.0773804 -0.8702366 0.5029073 -1.1457222
000370 fa 49 ca bf 97 a0 39 3f d9 29 e6 3e a4 3b 56 3f
       -1.5803826 0.72510666 0.44953802 0.83684754
000380 1f 28 b8 3f e3 0f b7 be 60 59 02 bf d5 ce c4 bf
       1.4387244 -0.35754308 -0.50917625 -1.537562
000390 0b 70 dd 3e 09 c7 85 3f 04 29 f4 bc d7 60 10 40
       0.43249545 1.0451366 -0.029804714 2.2559106
0003a0 9b 89 2d c0 36 dc 79 bf 81 5e 11 40 29 1f de bf
       -2.7115238 -0.9760164 2.271393 -1.7353259
0003b0 ef 3e cb bf 73 f1 2a 40 5b 41 fa be 1b de 95 3f
       -1.5878581 2.670987 -0.48877987 1.1708406
0003c0 db 77 9f 3f b5 da 6f 3f de 5a f4 bf e9 a4 76 3f
       1.2458452 0.93693095 -1.909023 0.9634538
0003d0 51 fe 7e be 79 54 4e bf 4d f6 62 be c7 96 aa bf
       -0.24901702 -0.80597645 -0.22164269 -1.3327264
0003e0 bd 5d 57 be a6 09 9c bf 5b 68 ce 3e d5 a9 33 3f
       -0.21031852 -1.2190444 0.40313992 0.7018102
0003f0 b7 f9 3d 3e bb 20 1e 3f eb 10 6e bf 92 e0 21 be
       0.1855229 0.6176869 -0.92994565 -0.15808323

B2 f4 [10]
000000 d5 a7 94 3e af 36 c8 bf 1a a7 00 c0 5b 70 8d bd
       0.29034296 -1.5641688 -2.010199 -0.06906196
000010 ed 14 14 bf 27 36 89 bf 5f 33 47 be a7 23 7e 3f
       -0.5784443 -1.0719651 -0.1945319 0.9927315
000020 82 fc 94 3f 1d 33 ac 3e
       1.1639559 0.33632746
